…
    "    keras.layers.Dense(10,activation='softmax')\n",
    "]\n",
    "\n",
    "model1 = keras.models.Sequential(feature_layers + classify_layer)"
   ]
  },
  {
   "cell_type": "code",
   "execution_count": 15,
   "metadata": {},
   "outputs": [
    {
     "name": "stdout",
     "output_type": "stream",
     "text": [
      "Model: \"sequential\"\n",
      "_________________________________________________________________\n",
      "Layer (type)                 Output Shape              Param #   \n",
      "=================================================================\n",
      "conv2d (Conv2D)              (None, 27, 27, 32)        160       \n",
      "_________________________________________________________________\n",
      "batch_normalization_v2 (Batc (None, 27, 27, 32)        128       \n",
      "_________________________________________________________________\n",
      "max_pooling2d (MaxPooling2D) (None, 13, 13, 32)        0         \n",
      "_________________________________________________________________\n",
      "conv2d_1 (Conv2D)            (None, 12, 12, 128)       16512     \n",
      "_________________________________________________________________\n",
      "batch_normalization_v2_1 (Ba (None, 12, 12, 128)       512       \n",
      "_________________________________________________________________\n",
      "max_pooling2d_1 (MaxPooling2 (None, 6, 6, 128)         0         \n",
      "_________________________________________________________________\n",
      "flatten (Flatten)            (None, 4608)              0         \n",
      "_________________________________________________________________\n",
      "dense (Dense)                (None, 128)               589952    \n",
      "_________________________________________________________________\n",
      "batch_normalization_v2_2 (Ba (None, 128)               512       \n",
      "_________________________________________________________________\n",
      "dense_1 (Dense)              (None, 64)                8256      \n",
      "_________________________________________________________________\n",
      "batch_normalization_v2_3 (Ba (None, 64)                256       \n",
      "_________________________________________________________________\n",
      "dense_2 (Dense)              (None, 10)                650       \n",
      "=================================================================\n",
      "Total params: 616,938\n",
      "Trainable params: 616,234\n",
      "Non-trainable params: 704\n",
      "_________________________________________________________________\n"
     ]
    }
   ],
   "source": [
    "model1.summary()"
   ]
  },
  {
   "cell_type": "code",
   "execution_count": 16,
   "metadata": {},
…
